DNN_for_PF/surrogate_model_IEEE123.pth (torch, 187944 bytes, 6 tensors)

model.0.weight f4 [128, 236]
0.01735013 0.0032317357 0.012525279 0.0372018 0.0014414717 -0.013498742 0.007120935 -0.004856114
-0.027289424 0.032831915 0.014349716 -0.015314005 0.039126415 -0.01733649 -0.03429564 -0.040102232
-0.057576314 -0.007827297 0.049646538 -0.02220093 -0.04568945 -0.02202056 0.04075405 -0.003225152
0.04133287 0.030493138 -0.022538945 0.039346524 0.047571495 -0.048927307 -0.0062114806 0.012990535
0.045541804 -0.024044484 0.05405815 0.055508405 0.07769254 0.06927799 0.009572461 0.070867166
-0.04580284 0.007928468 0.010283606 0.021929294 0.06165842 0.036902666 0.029761983 0.006676482
-0.013962451 0.02028303 0.06481665 0.0037452579 -0.030309595 -0.047653172 -0.00030255885 0.029798035
-0.04154104 -0.00020848215 0.033985183 -0.048024308 -0.02475248 0.0027998686 0.049514562 0.06381359
0.07665148 0.0086977715 0.045390837 0.041983373 -0.031943977 -0.021442864 -0.039107468 0.07829712
-0.008016783 -0.031229055 0.058085356 0.056357373 0.07685458 0.05383599 0.05231964 -0.008982779
0.059898105 -0.022330374 -0.04984312 0.04533714 0.04265285 0.037806787 0.051680304 -0.03922478
0.024068963 -0.02757665 -0.048571214 -0.0027222005 -0.03126104 -0.006754961 0.040314212 -0.012014776
0.010188237 -0.025921237 -0.0046274704 0.0670796 0.013437588 0.061897643 -0.002011627 0.021490544
0.031644 0.06630518 -0.032540556 0.040365852 0.04263057 0.048770886 0.01537738 0.042969707
-0.005549018 -0.041993737 0.04892966 0.07565551 -0.04068691 0.047576595 0.054878376 0.05132472
-0.031655103 -0.01368691 0.043417044 -0.039273158 -0.03346683 0.021650765 0.04162927 0.055148326
-0.013870055 0.00043982733 0.0033644834 -0.008642992 0.058190703 -0.022968454 0.055509917 -0.016038952
-0.025109205 -0.058242153 0.05037358 -0.03351046 -0.034890443 0.061913364 -0.032327734 0.06343587
0.02428265 0.05715981 -0.0071871616 0.06768299 -0.038245413 -0.006078463 0.04329685 -0.016911825
0.025322897 0.07148707 -0.00029518118 0.0403813 0.037584454 0.049108047 -0.007052148 0.020100206
-0.028811425 0.079544984 -0.020914802 0.012637681 0.02881966 -0.035325624 0.04805873 -0.0048446767
-0.021175148 0.01397389 0.062065467 -0.0006937781 0.028946748 -0.020053506 -0.017901788 -0.01553021
0.047826946 0.063207 0.075624555 -0.008684032 0.039437223 -0.039547652 -0.016629925 0.08121646
-0.038785625 0.00850031 0.07552476 -0.061960503 0.055384018 0.08087101 -0.042094655 -0.02909193
-0.040670745 0.046046253 -0.009752026 -0.009898752 0.03925076 -0.0485569 0.024255456 -0.058234006
0.061934523 0.0065066894 0.060691345 0.056793056 0.04855495 0.018748809 -0.013115955 -0.0489477
0.032432593 -0.03586867 -0.009354877 0.006107703 -0.059763856 0.042025495 0.03880991 0.024918802
0.066195846 -0.012118172 0.04526645 -0.013389728 0.06355627 0.045274194 -0.010380338 0.007869223
-0.024237081 -0.006265681 -0.03885794 0.040504094 0.044897184 0.040179893 0.030337198 0.00028961213
0.036345396 0.046071168 0.008201686 0.05829773 -0.023782648 0.0675858 0.016641872 -0.016307425
0.055440865 0.058646645 -0.035034284 -0.026854578 -0.017215725 -0.026913818 0.043380473 -0.029454581
0.022661103 0.045840964 -0.02196902 -0.015421153 -0.038843766 0.05690698 0.004503585 0.018962927
00000000: dc21 8e3c 87cb 533b d436 4d3c ea60 183d
00000010: c4ef bc3a d429 5dbc bb56 e93b 0920 9fbb
00000020: 128e dfbc c27a 063d 121b 6b3c 98e7 7abc
00000030: 0543 203d 4105 8ebc 9679 0cbd 3d42 24bd
00000040: 24d5 6bbd 103e 00bc 2b5a 4b3d bade b5bc
00000050: dc24 3bbd 7664 b4bc b8ed 263d 125d 53bb
00000060: a84c 293d bfcc f93c 98a3 b8bc d229 213d
00000070: 54da 423d 0068 48bd ad89 cbbb 41d6 543c
00000080: 0b8a 3a3d f0f8 c4bc 146c 5d3d c85c 633d
00000090: 441d 9f3d 9ee1 8d3d d0d5 1c3c ce22 913d
000000a0: c29b 3bbd 68e6 013c 927c 283c 10a5 b33c
000000b0: 8a8d 7c3d 4027 173d 67cf f33c 64c6 da3b
000000c0: c4c2 64bc 9928 a63c 97be 843d 0073 753b
000000d0: d44b f8bc f92f 43bd c3a0 9eb9 021b f43c
000000e0: f026 2abd 009c 5ab9 0c34 0b3d 23b5 44bd
000000f0: b7c5 cabc 007e 373b c8cf 4a3d b3b0 823d
00000100: 73fb 9c3d 1981 0e3c beeb 393d c2f6 2b3d
00000110: b0d7 02bd f2a8 afbc 272f 20bd 3e5a a03d
00000120: d358 03bc 13d4 ffbc e9ea 6d3d fdd6 663d
00000130: ef65 9d3d 2183 5c3d 1e4d 563d 822c 13bc
00000140: b757 753d 30ee b6bc 4d28 4cbd 70b3 393d
00000150: c1b4 2e3d 4adb 1a3d baae 533d 2aaa 20bd
00000160: 462c c53c 6de8 e1bc 9cf2 46bd f266 32bb
00000170: 940b 00bd b858 ddbb 8420 253d 9fd9 44bc
00000180: 90ec 263c c658 d4bc 09a2 97bb 0861 893d
00000190: 5429 5c3c 6288 7d3d 80d5 03bb f00c b03c
000001a0: 249d 013d 03cb 873d 3f49 05bd aa56 253d
000001b0: 649d 2e3d fbc3 473d 68f1 7b3c 0101 303d
000001c0: 89d4 b5bb a001 2cbd 786a 483d 47f1 9a3d
000001d0: 51a7 26bd addf 423d 26c8 603d df39 523d
000001e0: c8a8 01bd 103f 60bc 12d6 313d e4dc 20bd
000001f0: 8414 09bd f25c b13c 7483 2a3d 36e3 613d
00000200: 3a3f 63bc a098 e639 aa7e 5c3b 569b 0dbc
00000210: 6059 6e3d 5728 bcbc 5e5e 633d 1f64 83bc
00000220: d2b1 cdbc 538f 6ebd 8754 4e3d 4442 09bd
00000230: 48e9 0ebd de98 7d3d 166a 04bd aaea 813d
00000240: 68ec c63c 6820 6a3d 4882 ebbb 619d 8a3d
00000250: 39a7 1cbd d82d c7bb 0a58 313d ab8a 8abc
00000260: f771 cf3c d067 923d 8cc2 9ab9 dd66 253d
00000270: 28f2 193d 8525 493d b515 e7bb 30a9 a43c
00000280: f005 ecbc 7be8 a23d 8555 abbc 470e 4f3c
00000290: 3517 ec3c 9ab1 10bd 3bd9 443d 18c0 9ebb
000002a0: 8177 adbc bef2 643c 5c38 7e3d a9de 35ba
000002b0: bb21 ed3c 4047 a4bc c5a6 92bc 6c72 7ebc
000002c0: 30e6 433d ac72 813d 0ce1 9a3d 7847 0ebc
000002d0: ed88 213d b8fc 21bd 7b3b 88bc d154 a63d
000002e0: addd 1ebd e244 0b3c baac 9a3d 4cca 7dbd
000002f0: 5ada 623d b39f a53d 726b 2cbd 3352 eebc
00000300: 5e96 26bd ff9a 3c3d f6c6 1fbc 602e 22bc
00000310: 68c5 203d 9ae3 46bd 61b3 c63c c886 6ebd
00000320: 0eaf 7d3d 1136 d53b 7d97 783d d69f 683d
00000330: 8ee1 463d 1a97 993c 4de4 56bc 627d 48bd
00000340: 0ad8 043d 07eb 12bd 3345 19bc 2023 c83b
00000350: f2ca 74bd ed22 2c3d 24f7 1e3d 8422 cc3c
00000360: b091 873d 4c8b 46bc 5069 393d 9760 5bbc
00000370: ca29 823d 6f71 393d 4b12 2abc eaed 003c
00000380: d88c c6bc 5750 cdbb 8129 1fbd 9fe7 253d
00000390: 1ce6 373d ac93 243d b785 f83c 15d7 9739
000003a0: e9de 143d 1fb5 3c3d 5d60 063c 9ac9 6e3d
000003b0: d4d3 c2bc 6d6a 8a3d 8954 883c 2697 85bc
000003c0: f615 633d 7737 703d 1c80 0fbd 22fe dbbc
000003d0: fe07 8dbc 5e7a dcbc b9af 313d bc4a f1bc
000003e0: c7a3 b93c bcc3 3b3d 60f8 b3bc 01a9 7cbc
000003f0: a41a 1fbd 4b17 693d cf92 933b 2458 9b3c

model.0.bias f4 [128]
0.053440306 0.032875095 -0.022011796 -0.02880829 0.054826755 -0.006770852 -0.03936597 -0.07523183
0.032543704 0.039844707 0.04253386 -0.068822876 0.005760424 -0.009602389 0.016375266 -0.038076703
0.003941723 -0.027760707 0.040951096 0.006269498 -0.048780143 0.029301515 -0.016664043 0.006359169
0.031330932 -0.032538 -0.04735409 -0.0071021644 0.027580878 0.00056982256 0.017799662 0.04618329
-0.07787649 -0.028922131 -0.034356784 0.04593928 0.03798925 0.05118245 0.047713846 0.056030814
0.03308873 -0.022233026 -0.022592783 0.039675243 -0.031644683 0.0223166 -0.02468153 -0.036391318
-0.03669289 -0.09528077 -0.058535267 0.07127425 -0.055833604 0.015036778 0.0030562133 0.028671974
-0.004300605 0.024024133 -0.032145437 0.056091808 -0.04418894 -0.0020183974 0.031735115 0.00097168126
0.018219061 -0.03755122 0.07194946 -0.00406106 -0.07193449 -0.03210437 0.023847567 0.03957106
0.006805602 0.0040976773 0.08634078 0.018603494 0.049980856 0.046261787 -0.0053315256 -0.028017703
-0.021252327 -0.013909579 -0.0045498083 -0.0059211985 0.045801967 0.030497573 0.07447355 -0.051317263
-0.004325852 -0.047154926 0.054132115 0.012714714 -0.0333578 -0.0015689124 0.00929791 -0.011100937
0.009360471 -0.04802096 0.02975371 -0.03992666 0.001463148 -0.016624436 0.059888832 -0.019392818
-0.062139876 0.0038587018 -0.024787413 0.0055583487 -0.035364497 -0.028901475 0.05525328 -0.012043145
0.086439215 0.046993706 -0.049340174 -0.03768256 0.008549433 -0.0329304 0.05476888 -0.019786272
0.041151777 -0.0724825 0.010160024 0.006947704 -0.032960836 0.06598317 -0.049426146 -0.023257433
00000000: 39e4 5a3d 09a8 063d 1552 b4bc 5dff ebbc
00000010: 0592 603d 06de ddbb 363e 21bd 2513 9abd
00000020: 8c4c 053d 3434 233d fc37 2e3d 02f3 8cbd
00000030: f0c1 bc3b 5753 1dbc 6c25 863c 51f6 1bbd
00000040: 9229 813b 6c6a e3bc 56bc 273d 5c70 cd3b
00000050: b0cd 47bd bb09 f03c 0883 88bc 9360 d03b
00000060: dd54 003d 9146 05bd 5df6 41bd 46b9 e8bb
00000070: 4bf1 e13c 2560 153a 99d0 913c b12a 3d3d
00000080: b67d 9fbd 1bee ecbc b3b9 0cbd d42a 3c3d
00000090: 9e9a 1b3d b0a4 513d 986f 433d 9180 653d
000000a0: 0c88 073d 0922 b6bc 8014 b9bc 8282 223d
000000b0: db9d 01bd 4dd1 b63c ec30 cabc 100f 15bd
000000c0: 494b 16bd 9022 c3bd adc2 6fbd 3cf8 913d
000000d0: c7b1 64bd d15c 763c c04a 483b 7de1 ea3c
000000e0: 17ec 8cbb 42ce c43c efaa 03bd 86c0 653d
000000f0: 76ff 34bd 1747 04bb aefc 013d 6db8 7e3a
00000100: 2440 953c 4fcf 19bd 3d5a 933d a412 85bb
00000110: 6452 93bd df7f 03bd f95b c33c 4415 223d
00000120: 8701 df3b cf45 863b 6fd3 b03d 5b66 983c
00000130: bab8 4c3d 007d 3d3d 14b4 aebb 6285 e5bc
00000140: 5c19 aebc 01e5 63bc 8f16 95bb 9d06 c2bb
00000150: d89a 3b3d 0cd6 f93c 9785 983d 0d32 52bd
00000160: e0bf 8dbb 8625 41bd a3b9 5d3d 6051 503c
00000170: 30a2 08bd f7a3 cdba 4356 183c b4e0 35bc
00000180: a95c 193c a0b1 44bd 0dbe f33c 238a 23bd
00000190: 1ac7 bf3a f82f 88bc fe4d 753d b0dd 9ebc
000001a0: 6286 7ebd 46e2 7c3b f90e cbbc cf22 b63b
000001b0: 5dda 10bd c9c2 ecbc 4351 623d 9c50 45bc
000001c0: 0b07 b13d 797c 403d ec18 4abd 0759 1abd
000001d0: ec12 0c3c 07e2 06bd 5555 603d d216 a2bc
000001e0: c48e 283d b471 94bd 3b76 263c 91a9 e33b
000001f0: f101 07bd 2f22 873d 1273 4abd 5f86 bebc

model.2.weight f4 [64, 128]
0.049604993 0.010397177 0.038966794 -0.048433453 0.029185912 0.0739819 -0.027467856 0.007682792
-0.009762827 0.110093355 0.029578567 -0.029554749 -0.07327668 -0.10951163 0.036781125 0.019374
0.07955377 -0.034551293 -0.05831434 0.09002817 -0.029668948 0.044898335 0.019167228 -0.031998638
0.065790646 0.056465738 0.077686444 -0.045265146 0.1142338 0.05063079 -0.016655723 0.02745539
0.06105736 -0.058302302 -0.013001228 -0.039269935 -0.072991095 0.048736636 0.03401921 0.07713976
-0.0035277414 0.02096075 0.034051094 -0.026918545 -0.05915543 -0.057796728 0.013203095 -0.049188286
0.011854168 0.077393554 -0.036365245 0.025084825 0.035018094 -0.0676047 -0.055140838 0.12419456
0.13202608 0.060745873 -0.01918999 0.014854435 0.060850672 0.031964984 -0.073471844 0.03966209
-0.06877057 0.022252608 0.012305857 -0.07041792 0.087413 -0.034091245 -0.06145858 -0.054792404
0.0034546503 -0.032545317 -0.018330067 0.036886167 -0.032532636 -0.06500214 -0.034277942 -0.066194646
0.077555224 0.007881785 0.084598705 -0.084117755 -0.033772506 0.067147985 0.04058086 0.10092463
-0.03478196 -0.038280215 0.079684846 0.0019676962 0.08820847 0.06493086 -0.07989158 0.03896277
0.0027326227 -0.07648145 0.052028965 0.028829837 -0.06783916 -0.045972098 0.00024418475 0.036242142
-0.021632126 -0.08553143 -0.052007373 0.048098087 0.058646966 -0.008196056 0.034073696 0.07366154
-0.097745754 0.06306601 -0.015471757 0.117718555 0.04246652 -0.12258357 0.011055267 0.0015895511
-0.028852375 0.004745777 -0.038627643 -0.063753426 0.02772098 0.02221422 0.032397438 0.0065746387
0.02015116 -0.091862224 0.063475154 0.035884023 0.103617504 -0.047248486 -0.072387226 0.09511564
-0.064752825 1.0267924e-05 0.03251203 -0.016476367 0.017593486 -0.098747306 -0.02746601 -0.060475416
-0.06560848 -0.020535393 0.06779453 0.027946169 -0.0024281738 0.06932984 0.06667228 -0.01633111
-0.04320468 -0.08920602 -0.063744366 0.08750069 0.07588185 0.02894705 -0.008200739 0.0081923185
0.059574638 -0.04105925 -0.07673973 -0.085393734 0.023660654 -0.048448626 -0.030439219 0.045642123
-0.08231256 -0.08549183 -0.0578063 0.0011868367 0.080798104 -0.066876754 -0.03525744 0.043514922
-0.017315166 0.07201191 -0.00065119535 0.043143865 0.043155745 -0.03049889 0.036092717 0.06782938
0.050647084 0.06141258 -0.045942422 0.08239051 0.0668748 0.048105657 -0.050010588 0.040072203
-0.06110421 0.050292514 0.029202024 -0.04136716 -0.059401914 -0.03504845 -0.09317874 0.052029703
-0.08764571 0.015769066 -0.068761535 0.019162258 -0.038543493 -0.02109728 -0.004627139 -0.011969135
0.058367997 0.03580884 -0.010100315 -0.025167812 -0.020730464 0.01136359 0.01478053 -0.037656218
-0.036000688 -0.006910698 -0.04611815 -0.0812889 -0.007699016 0.0706123 -0.0019327729 -0.064803995
-0.0051417397 -0.0069883987 0.05786045 -0.06932303 -0.049466394 -0.051861186 0.025541726 0.00541688
0.088234566 0.08117306 -0.02489197 -0.057751868 0.03984831 0.0037232232 0.038226426 -0.09220369
0.008684374 -0.012746884 0.02600759 0.045935504 -0.06311335 0.10628661 0.10561422 0.08050853
0.10885491 -0.08555677 0.056273222 0.073634304 -0.00672276 -0.023648294 0.065389775 -0.0729454
00000000: 9b2e 4b3d ec58 2a3c a59b 1f3d 2862 46bd
00000010: 4b17 ef3c d383 973d 4504 e1bc eebf fb3b
00000020: 44f4 1fbc a078 e13d c04e f23c cd1c f2bc
00000030: 1612 96bd a247 e0bd cea7 163d 39b6 9e3c
00000040: 16ed a23d a885 0dbd 04db 6ebd b060 b83d
00000050: 4b0c f3bc 51e7 373d 9704 9d3c 0111 03bd
00000060: 3fbd 863d 9e48 673d 121a 9f3d f267 39bd
00000070: 69f3 e93d 3b62 4f3d 9571 88bc 20ea e03c
00000080: 4817 7a3d 65ce 6ebd 1a03 55bc 83d9 20bd
00000090: 5b7c 95bd 11a0 473d ba57 0b3d 73fb 9d3d
000000a0: ae31 67bb e1b5 ab3c 2979 0b3d 4884 dcbc
000000b0: f74c 72bd 43bc 6cbd cb51 583c a879 49bd
000000c0: fc37 423c 8380 9e3d b9f3 14bd b17e cd3c
000000d0: 226f 0f3d 5574 8abd 5cdb 61bd b859 fe3d
000000e0: d831 073e aad0 783d 5334 9dbc 0460 733c
000000f0: 8e3e 793d b7ed 023d 6878 96bd b774 223d
00000100: 96d7 8cbd 1a4b b63c 819e 493c 4537 90bd
00000110: 9605 b33d 43a3 0bbd febb 7bbd 006e 60bd
00000120: 6a67 623b 3d4e 05bd f028 96bc f315 173d
00000130: f140 05bd d81f 85bd 0767 0cbd 0f91 87bd
00000140: 46d5 9e3d 9a22 013c 1642 ad3d ee45 acbd
00000150: 0a55 0abd e284 893d 1e38 263d 93b1 ce3d
00000160: 8777 0ebd b7cb 1cbd cf31 a33d 77f4 003b
00000170: a4a6 b43d 79fa 843d 329e a3bd 6d97 1f3d
00000180: cd15 333b 4ea2 9cbd 531c 553d 8d2c ec3c
00000190: 42ef 8abd 3d4d 3cbd ec05 8039 a472 143d
000001a0: db35 b1bc 1a2b afbd af05 55bd 8002 453d
000001b0: cd37 703d c048 06bc dc90 0b3d dddb 963d
000001c0: ed2e c8bd c128 813d 417d 7dbc 6d16 f13d
000001d0: 60f1 2d3d 180d fbbd 2721 353c 7c58 d03a
000001e0: d15b ecbc 7782 9b3b 0538 1ebd 2891 82bd
000001f0: 1c17 e33c 99fa b53c 2db3 043d 1170 d73b
00000200: 0c14 a53c 4322 bcbd 43ff 813d 20fb 123d
00000210: 6a35 d43d a187 41bd c13f 94bd fdcb c23d
00000220: 219d 84bd 6644 2c37 562b 053d 72f9 86bc
00000230: 3720 903c 073c cabd 6600 e1bc 12b5 77bd
00000240: bd5d 86bd d739 a8bc dcd7 8a3d 5def e43c
00000250: ff21 1fbb cefc 8d3d 7a8b 883d d2c8 85bc
00000260: 64f7 30bd a5b1 b6bd 688c 82bd 9033 b33d
00000270: f267 9b3d 5d22 ed3c 645c 06bc 1339 063c
00000280: 8904 743d be2d 28bd b829 9dbd e9e2 aebd
00000290: fdd3 c13c 1172 46bd ab5b f9bc 3cf3 3a3d
000002a0: 7d93 a8bd 5716 afbd 4dc6 6cbd a28f 9b3a
000002b0: 7a79 a53d aef6 88bd 1b6a 10bd b43c 323d
000002c0: 89d8 8dbc fb7a 933d fbb4 2aba 9fb7 303d
000002d0: 14c4 303d cfd8 f9bc f5d5 133d 21ea 8a3d
000002e0: 5173 4f3d c28b 7b3d 1f2e 3cbd 5bbc a83d
000002f0: a8f5 883d 700a 453d e7d7 4cbd c022 243d
00000300: 6848 7abd 86ff 4d3d 1539 ef3c 9c70 29bd
00000310: 6c4f 73bd f78e 0fbd 7fd4 bebd 191d 553d
00000320: 987f b3bd 212e 813c d9d2 8cbd 2bfa 9c3c
00000330: c8df 1dbd 34d4 acbc 419f 97bb 311a 44bc
00000340: 4813 6f3d 4aac 123d cb7b 25bc ba2c cebc
00000350: efd2 a9bc 5a2e 3a3c 092a 723c 683d 1abd
00000360: 7575 13bd 2373 e2bb 63e6 3cbd cb7a a6bd
00000370: 0748 fcbb 2e9d 903d 1955 fdba f5b7 84bd
00000380: 0a7c a8bb f0fe e4bb 14ff 6c3d 3cf9 8dbd
00000390: 469d 4abd 656c 54bd e23c d13c 1580 b13b
000003a0: 53b4 b43d 103e a63d 3fea cbbc 398d 6cbd
000003b0: fb37 233d 5201 743b 5093 1c3d 4ad5 bcbd
000003c0: e848 0e3c 4ed8 50bc df0d d53c de26 3c3d
000003d0: 9241 81bd cbac d93d 454c d83d a8e1 a43d
000003e0: 53ef de3d 6338 afbd c07e 663d 95cd 963d
000003f0: 994a dcbb 11ba c1bc 13eb 853d 6664 95bd

model.2.bias f4 [64]
0.018095013 0.0642448 -0.06369293 -0.02286385 -0.09577335 -0.07962723 -0.032333586 0.0775553
-0.0771018 0.07052067 -0.011105684 0.044781424 0.0038220196 0.0045961253 0.05482229 0.015023407
0.0016808311 -0.02427765 0.0036755514 0.05464077 -0.05708837 0.048296727 0.038805492 -0.009105079
-0.09444877 -0.050208878 -0.032087404 0.026927177 0.058459364 -0.050830897 0.025295224 -0.04951821
0.06938877 0.05633997 -0.07095641 -0.09771774 -0.0024097601 -0.08229517 -0.025084004 -0.010791626
-0.05781786 -0.0997446 0.09017071 0.082863756 0.07599591 0.012453592 -0.035851736 0.02667634
-0.040760864 0.049915683 -0.02041107 0.04461537 -0.014986164 -0.07910502 -0.018900175 0.0369273
-0.006265851 -0.072337866 -0.031497084 0.09947033 0.02726173 0.07659935 0.059511058 -0.0035620157
00000000: fe3b 943c c792 833d 7071 82bd f84c bbbc
00000010: d124 c4bd 9a13 a3bd 3970 04bd 50d5 9e3d
00000020: 8ce7 9dbd 246d 903d 9df4 35bc ba6c 373d
00000030: d97a 7a3b 189b 963b 568d 603d bc24 763c
00000040: 554f dc3a ece1 c6bc 85e1 703b 00cf 5f3d
00000050: 7fd5 69bd cad2 453d 82f2 1e3d 782d 15bc
00000060: 5b6e c1bd d3a7 4dbd 156e 03bd 6296 dc3c
00000070: 1673 6f3d 0f34 50bd ee37 cf3c 9bd3 4abd
00000080: b31b 8e3d bec4 663d 9851 91bd 3d20 c8bd
00000090: 11ed 1dbb 5f8a a8bd f87c cdbc 5ccf 30bc
000000a0: 6cd2 6cbd e646 ccbd 6cab b83d 79b4 a93d
000000b0: bea3 9b3d 270a 4c3c 45d9 12bd 5788 da3c
000000c0: ddf4 26bd 6374 4c3d 1e35 a7bc 9bbe 363d
000000d0: 8788 75bc d001 a2bd 8ad4 9abc 1541 173d
000000e0: c551 cdbb e025 94bd 1603 01bd 1ab7 cb3d
000000f0: fe53 df3c 1fe0 9c3d dec1 733d b570 69bb

model.4.weight f4 [118, 64]
-0.010679362 0.04017978 -0.0023405377 0.040130638 0.07774506 -0.08469539 -0.10397654 -0.05058161
-0.009958261 -0.07554547 -0.05112217 -0.047724456 -0.047897916 0.026587939 0.019739527 0.048922855
-0.032615382 0.07233085 -0.010379314 -0.036864556 0.052425247 -0.020572884 -0.042976253 -0.071797
0.072304204 -0.03291367 0.044239406 0.07972801 -0.104282446 0.094978966 0.09310219 0.032805
-0.029189868 -0.061713897 0.049354404 0.10258027 0.05611441 0.08542608 0.08508559 -0.06101003
0.07334672 0.02594943 -0.034269392 -0.033399995 0.070406415 0.008440198 -0.08365685 0.09572915
-0.064576834 0.0762787 -0.026540266 -0.027307052 0.019174658 -0.04180409 0.069459245 0.06961965
0.00059431937 -0.0587223 0.047106437 0.02164825 0.065710634 0.026424553 0.10457334 -0.07115173
0.06621663 0.05746725 -0.10642389 -0.077854626 0.12475222 -0.13245067 -0.112509325 -0.051205598
0.06339845 0.072963245 -0.06819097 -0.017127793 0.040364347 0.06823102 -0.09087358 0.073295966
0.12448202 0.014078812 0.024943264 0.024187157 0.11349012 0.13844737 0.02081037 0.10494853
-0.004047608 0.14075507 -0.016705 0.09324454 0.10926672 0.01855939 0.06236465 -0.054007314
-0.06482182 0.042278234 -0.025249785 -0.013040215 0.05795068 -0.07878972 -0.06958931 0.0059960024
-0.058240607 -0.11767733 -0.0854418 0.008334966 0.03631387 -0.04453621 0.08610509 -0.053987205
0.121056706 -0.04359223 0.13211478 0.10377487 0.06040391 0.00074331526 0.09572257 0.11169796
0.10061767 0.06011919 0.071292244 0.05036258 0.021508524 -0.043356817 -0.081737846 0.1152577
-0.07568224 0.090586476 -0.07567535 -0.06050151 -0.092708796 -0.009142723 -0.09124485 0.023053665
0.047623906 0.013337729 0.12833558 0.0023707047 0.044136208 0.076243795 -0.12252642 0.06338494
0.11148975 0.070550926 -0.116184875 -0.0874076 0.049695555 0.08743305 0.087743714 0.048599675
0.041200377 -0.06784967 -0.014697163 0.104505986 0.09477148 -0.09695165 0.16265643 0.020214438
-0.034840144 -0.11789042 -0.08480916 -0.06040849 -0.080763966 0.09799964 0.080857486 -0.11022781
-0.081419535 0.028354043 0.030405983 -0.050803363 -0.093554355 0.075889766 -0.03559054 0.045332715
0.037489828 0.119093835 -0.07746323 -0.018253354 -0.15077622 -0.09259 0.09257051 -0.12209553
-0.120247275 -0.110582255 -0.018970514 0.07083017 0.090913005 -0.11512462 -0.003900157 0.0496838
-0.061035942 -0.03673681 -0.068588935 -0.10527708 -0.122738115 -0.07609105 0.023505397 0.017655304
-0.016689584 -0.15221813 -0.058409963 -0.103874184 0.09609707 -0.05655523 -0.08020692 -0.13952464
0.079568855 0.092340454 0.0042354465 -0.056802757 -0.07418141 0.07773143 -0.08431234 0.0500717
-0.10398509 0.019484391 0.009946668 -0.09280871 0.019057052 -0.115420915 0.08665384 -0.030963773
-0.15202557 -0.11292545 0.14092453 0.058374632 -0.0063815857 0.051516637 -0.08190706 -0.12112963
-0.13502102 0.06544173 -0.018182406 -0.080080874 0.14427865 0.109159976 -0.06500662 -0.10649682
-0.022298263 0.141461 0.11233689 0.14932251 -0.10284427 0.048891865 0.009263741 -0.06537527
-0.09464289 -0.12893486 0.057067107 -0.018383712 -0.08834158 0.009708817 0.10632905 0.07751163
00000000: 7ef8 2ebc 8e93 243d b563 19bb 0660 243d
00000010: cd38 9f3d c774 adbd a7f1 d4bd aa2e 4fbd
00000020: f927 23bc 95b7 9abd 7b65 51bd b87a 43bd
00000030: 9b30 44bd f3ce d93c cab4 a13c 5563 483d
00000040: b597 05bd 3222 943d 000e 2abc 4aff 16bd
00000050: dbbb 563d 7788 a8bc de07 30bd 4e0a 93bd
00000060: 3a14 943d 7cd0 06bd 6134 353d 7048 a33d
00000070: 0992 d5bd 5584 c23d 5cac be3d 895e 063d
00000080: 971f efbc b6c7 7cbd d827 4a3d 9b15 d23d
00000090: 39d8 653d def3 ae3d 5b41 ae3d a7e5 79bd
000000a0: ce36 963d e693 d43c 105e 0cbd 6fce 08bd
000000b0: 3d31 903d c248 0a3c 4854 abbd a50d c43d
000000c0: dc40 84bd 0238 9c3d f96a d9bc 0ab3 dfbc
000000d0: 2c14 9d3c c43a 2bbd a640 8e3d bf94 8e3d
000000e0: 19cc 1b3a cb86 70bd aef2 403d ac57 b13c
000000f0: 4c93 863d 4e78 d83c 8c2a d63d 00b8 91bd
00000100: 969c 873d c762 6b3d c5f4 d9bd 3f72 9fbd
00000110: 187e ff3d 26a1 07be 4a6b e6bd f6bc 51bd
00000120: 0cd7 813d c16d 953d b5a7 8bbd 964f 8cbc
00000130: 1655 253d b4bc 8b3d ed1b babd 321c 963d
00000140: 6ef0 fe3d d1aa 663c d155 cc3c 2524 c63c
00000150: 826d e83d 26c5 0d3e 827a aa3c 41ef d63d
00000160: cca1 84bb 1922 103e edd8 88bc fef6 be3d
00000170: 3bc7 df3d dd09 983c 1372 7f3d c636 5dbd
00000180: 4dc1 84bd f12b 2d3d a3d8 cebc a0a6 55bc
00000190: b15d 6d3d 815c a1bd d784 8ebd 1d7a c43b
000001a0: b48d 6ebd d000 f1bd 1cfc aebd 628f 083c
000001b0: dabd 143d 9a6b 36bd de57 b03d b021 5dbd
000001c0: 94ec f73d c48d 32bd 1949 073e eb87 d43d
000001d0: 176a 773d 0bdb 423a 320a c43d e6c1 e43d
000001e0: a310 ce3d 8a3f 763d ab01 923d fe48 4e3d
000001f0: a532 b03c eb96 31bd 2c66 a7bd 3b0c ec3d
00000200: 4aff 9abd 6785 b93d aefb 9abd 6ed0 77bd
00000210: 1cde bdbd 5ccb 15bc 94de babd 0adb bc3c
00000220: 4911 433d 7d86 5a3c 676a 033e d35d 1b3b
00000230: 2bc8 343d b525 9c3d 22ef fabd f7cf 813d
00000240: bd54 e43d 017d 903d 56f2 edbd c102 b3bd
00000250: 918d 4b3d 1910 b33d fab2 b33d 7410 473d
00000260: bac1 283d c5f4 8abd 5fcc 70bc 3c07 d63d
00000270: 8d17 c23d 968e c6bd 688f 263e c098 a53c
00000280: 8ab4 0ebd 8870 f1bd 6db0 adbd e56e 77bd
00000290: 9467 a5bd 09b4 c83d 9c98 a53d 1ebf e1bd
000002a0: 49bf a6bd bd46 e83c f815 f93c 3017 50bd
000002b0: 6d99 bfbd 186c 9b3d 63c7 11bd ccae 393d
000002c0: ef8e 193d 78e7 f33d 0ba5 9ebd 0f88 95bc
000002d0: 1565 1abe d39f bdbd 9c95 bd3d 390d fabd
000002e0: 3444 f6bd f378 e2bd 0d68 9bbc 680f 913d
000002f0: 9930 ba3d 75c6 ebbd c799 7fbb 3e81 4b3d
00000300: d300 7abd 5679 16bd 5b78 8cbd 829b d7bd
00000310: 1f5e fbbd a0d5 9bbd 648e c03c dba1 903c
00000320: 98b8 88bc 12df 1bbe 493f 6fbd fdbb d4bd
00000330: 8ace c43d 75a6 67bd 8743 a4bd 8cdf 0ebe
00000340: fff4 a23d fe1c bd3d 80c9 8a3b 02aa 68bd
00000350: 6cec 97bd a831 9f3d f3ab acbd fc17 4d3d
00000360: 23f6 d4bd bb9d 9f3c 59f7 223c 7e12 bebd
00000370: 891d 9c3c cd61 ecbd 9277 b13d bda7 fdbc
00000380: 97ac 1bbe 7545 e7bd 854e 103e 3d1a 6f3d
00000390: 9f1c d1bb 1c03 533d e4be a7bd d012 f8bd
000003a0: f342 0abe 5006 863d 45f3 94bc 7101 a4bd
000003b0: c8bd 133e 448f df3d 3122 85bd 011b dabd
000003c0: d9aa b6bc 27db 103e e210 e63d 00e8 183e
000003d0: 04a0 d2bd d642 483d f2c6 173c 78e3 85bd
000003e0: 22d4 c1bd 8007 04be 33bf 693d 7099 96bc
000003f0: 6eec b4bd bb11 1f3c 0cc3 d93d 6bbe 9e3d

model.4.bias f4 [118]
-0.0686279 0.06982785 -0.042077515 -0.017086849 0.02123683 -0.010099598 0.060382593 -0.10620402
0.008579026 -0.048793018 -0.0771256 0.019708501 0.13780141 -0.087014124 0.0062906384 0.051696897
0.051665165 -0.026043877 0.08201817 0.08525559 0.04881292 -0.06484834 0.070484936 0.038567644
0.12760417 0.09498232 -0.08585652 -0.0324819 0.12618737 0.06292047 -0.015793039 -0.025701396
0.07810802 0.043511324 0.095240206 0.023099186 -0.047957208 0.10102116 0.00854213 -0.08515084
0.06799908 0.13571654 0.09642283 0.13933372 0.050628133 -0.05744636 0.04242806 -0.040133893
-0.013369867 -0.06603365 0.083846815 0.11492238 -0.04927332 0.11802075 -0.089498304 -0.051731694
-0.005480537 0.0328087 0.026512949 -0.050873537 -0.056411676 -0.07961252 -0.03236845 0.10674002
0.033940602 0.06668124 0.112538606 0.099102974 0.039113723 0.109137446 -0.013905819 0.098511495
-0.059896674 -0.035579804 0.0127931535 0.10853427 0.035531085 -0.06988345 -0.07806826 -0.0040957024
-0.08477866 0.06410194 -0.069423854 0.13408835 -0.053171493 -0.08100115 -0.040903125 0.03710716
0.103759326 -0.086707495 -0.07877462 -0.115060374 0.056166872 0.029953405 0.06946027 0.07740986
0.046519253 0.08455036 0.016009755 -0.019446816 0.13635927 -0.013479163 0.13802074 0.08267748
-0.050905433 0.02783325 0.06666948 0.02859558 0.0032445109 -0.09743518 0.072209194 0.024730971
0.107473075 0.11885387 -0.10023477 0.008871471 0.10112139 0.070845485
00000000: c98c 8cbd e701 8f3d 7959 2cbd b8f9 8bbc
00000010: dcf8 ad3c c978 25bc bd53 773d 7e81 d9bd
00000020: 0b8f 0c3c 30db 47bd 07f4 9dbd b973 a13c
00000030: d01b 0d3e 7634 b2bd b321 ce3b 20c0 533d
00000040: da9e 533d f859 d5bc 24f9 a73d 7c9a ae3d
00000050: 0ef0 473d 35cf 84bd 685a 903d 1bf9 1d3d
00000060: abaa 023e 1786 c23d 8bd5 afbd be0b 05bd
00000070: 4337 013e 73dc 803d 6760 81bc bc8b d2bc
00000080: 19f7 9f3d ee38 323d 4c0d c33d 813a bd3c
00000090: c76e 44bd 2fe4 ce3d 4af4 0b3c 9063 aebd
000000a0: 1a43 8b3d 47f9 0a3e 5579 c53d 80ad 0e3e
000000b0: 725f 4f3d e04c 6bbd 0cc9 2d3d 7063 24bd
000000c0: 490d 5bbc a63c 87bd e1b7 ab3d 6d5c eb3d
000000d0: d2d2 49bd ddb4 f13d e34a b7bd 9de4 53bd
000000e0: 1496 b3bb 6a62 063d af31 d93c c560 50bd
000000f0: ee0f 67bd e40b a3bd c894 04bd 839a da3d
00000100: 4d05 0b3d 2d90 883d a47a e63d 80f6 ca3d
00000110: b635 203d 7483 df3d 3bd5 63bc 65c0 c93d
00000120: 3756 75bd 21bc 11bd 609a 513c 3747 de3d
00000130: 0b89 113d 0e1f 8fbd 40e2 9fbd 3e35 86bb
00000140: 6fa0 adbd e147 833d 182e 8ebd 754e 093e
00000150: 5aca 59bd eee3 a5bd 098a 27bd adfd 173d
00000160: c57f d43d b393 b1bd 9754 a1bd c6a4 ebbd
00000170: 3c0f 663d d860 f53c 3041 8e3d 1089 9e3d
00000180: f98a 3e3d bd28 ad3d e426 833c ee4e 9fbc
00000190: c4a1 0b3e b5d7 5cbc 4f55 0d3e d052 a93d
000001a0: 3782 50bd 8e02 e43c 028a 883d 4741 ea3c
000001b0: dca1 543b 188c c7bd 6ae2 933d 9b98 ca3c
000001c0: d81a dc3d a869 f33d e347 cdbd a559 113c
000001d0: bb18 cf3d 7017 913d
